Sequential_Networks/gru_clean_checkpoint_fold_0_iter_0.pt (torch_old, 473746 bytes, 25 tensors)

rnn.weight_ih_l0 f4 [192, 1]
0.14918967 0.31084135 -0.17181687 0.07837553 -0.055820744 0.25201365 -0.23128995 -0.07450412
0.028359102 0.106938064 -0.14850776 0.030863505 0.031027101 -0.036396466 0.041531067 0.15146083
0.038178742 -0.23812656 0.15451665 0.20546691 0.14297256 -0.1257669 -0.040755287 -0.04525186
0.009341686 -0.01555441 0.0718269 0.022993857 -0.15580927 0.09864073 -0.0442058 -0.08008195
-0.007884489 -0.12277988 -0.071241625 0.18045361 0.037599783 -0.04560089 -0.2018652 0.072367
0.02358429 0.117744 -0.090340525 -0.117111444 0.23058216 -0.045794804 -0.08488297 -0.03711301
-0.11891433 -0.079781316 -0.05592157 -0.043338757 -0.20541088 0.025896078 0.16812532 -0.14549728
-0.03032743 -0.17364033 0.019923586 -0.23269399 0.3349089 -0.025881737 -0.16122659 -0.22012936
-0.07127879 -0.038830344 0.17143306 -0.20960402 0.32164267 0.15726487 -0.18723804 -0.23841082
0.0902895 0.024229601 -0.059023425 -0.33000192 -0.16826046 -0.025117202 0.05771062 -0.14849995
0.22640544 0.04430401 -0.11950624 0.21988475 -0.13206993 0.2095786 0.12507318 -0.056389354
-0.17384218 -0.15613167 0.013896309 0.10926385 0.0017259298 0.03421128 -0.023478013 -0.14910036
-0.09179714 0.097808056 -0.35069346 0.1780045 0.105162635 0.024641687 0.03360694 -0.27085894
0.11369463 -0.06718745 0.31218114 -0.22677374 0.30673036 -0.07594427 0.018434474 -0.03844443
-0.076648585 -0.1808983 -0.24447909 -0.18892302 -0.3068292 -0.19027388 -0.059889026 -0.076806046
-0.08925981 0.03473527 -0.21855259 -0.16499792 0.17757927 0.16484559 -0.050270785 -0.11920791
0.1366384 0.15961856 -0.107675456 -0.054539107 -0.11353317 -0.1072293 0.14118366 -0.14289197
-0.060036898 0.18524595 0.16764434 -0.12943655 -0.15183122 0.07890167 0.074389055 -0.041847304
-0.09997244 -0.31080577 -0.15054014 -0.09854856 -0.17242151 -0.09035851 -0.03546433 0.15006855
-0.06727844 -0.12300538 0.06458574 -0.10606294 0.123237826 0.1224849 0.12108497 -0.04406673
0.08011299 -0.06326853 0.1146847 0.07633188 -0.13098857 -0.053254616 -0.14123626 0.04903059
0.14278445 0.0926729 0.18509865 0.094271556 0.02702493 -0.04870146 0.14706084 -0.13856785
0.138756 -0.080708496 0.18441692 -0.12848343 0.13127536 -0.122798674 0.058800455 0.110756986
-0.16673802 0.09926896 0.08325804 -0.009933268 0.11228111 0.06761517 -0.08984766 0.12443768
00000000: 2dc5 183e 9926 9f3e c3f0 2fbe 5a83 a03d
00000010: 4ba4 64bd ef07 813e 46d7 6cbe 9e95 98bd
00000020: 5951 e83c 5802 db3d 6b12 18be 76d5 fc3c
00000030: 8c2c fe3c 7614 15bd 7b1c 2a3d 8c18 1b3e
00000040: 5061 1c3d 73d7 73be 9d39 1e3e eb65 523e
00000050: 6667 123e 0ac9 00be 04ef 26bd 045a 39bd
00000060: df0d 193c edd7 7ebc fb19 933d 9d5d bc3c
00000070: 778c 1fbe 2704 ca3d 2411 35bd 0102 a4bd
00000080: f22d 01bc 0574 fbbd 21e7 91bd d5c8 383e
00000090: 3b02 1a3d 00c8 3abd c0b5 4ebe 2635 943d
000000a0: d733 c13c c423 f13d 7404 b9bd 20d8 efbd
000000b0: bb1d 6c3e 5593 3bbd 1fd7 adbd d003 18bd
000000c0: 5b89 f3bd 6364 a3bd 040e 65bd fb83 31bd
000000d0: 3b57 52be 0324 d43c 0b29 2c3e 3dfd 14be
000000e0: 3b71 f8bc c5ce 31be ca36 a33c 5547 6ebe
000000f0: 2e79 ab3e f005 d4bc 9518 25be 9769 61be
00000100: 9dfa 91bd 910c 1fbd 268c 2f3e 70a2 56be
00000110: 59ae a43e 0b0a 213e 54bb 3fbe f721 74be
00000120: b4e9 b83d 287d c63c 8cc2 71bd 03f6 a8be
00000130: 784c 2cbe 97c2 cdbc f961 6c3d 5f10 18be
00000140: d4d6 673e 1f78 353d b0bf f4bd 7829 613e
00000150: 573d 07be c69b 563e 2f13 003e 86f8 66bd
00000160: af03 32be fbe0 1fbe 58ad 633c bac5 df3d
00000170: 9838 e23a 2121 0c3d f654 c0bc c4ad 18be
00000180: 2400 bcbd 974f c83d 188e b3be d046 363e
00000190: 825f d73d 5ddd c93c 6ea7 093d 06ae 8abe
000001a0: bbd8 e83d 9399 89bd 35d6 9f3e 6037 68be
000001b0: c30b 9d3e ab88 9bbd e503 973c e877 1dbd
000001c0: eff9 9cbd 673d 39be ba58 7abe 0975 41be
000001d0: b818 9dbe 28d7 42be 324e 75bd 7d4c 9dbd
000001e0: d9cd b6bd 9246 0e3d 40cc 5fbe 37f5 28be
000001f0: 57d7 353e 48cd 283e bde8 4dbd 4723 f4bd
00000200: f0ea 0b3e 0c73 233e f384 dcbd 6664 5fbd
00000210: 1484 e8bd 099b dbbd 7392 103e 4652 12be
00000220: 40e9 75bd 1db1 3d3e f5aa 2b3e 048b 04be
00000230: a579 1bbe 3397 a13d 4a59 983d 1468 2bbd
00000240: 5abe ccbd ef21 9fbe 3227 1abe d4d3 c9bd
00000250: 448f 30be e20d b9bd 0c43 11bd 92ab 193e
00000260: 47c9 89bd 3fea fbbd 8745 843d 8737 d9bd
00000270: 1d64 fc3d 5dd9 fa3d 66fb f73d 517f 34bd
00000280: 4812 a43d ee92 81bd d0df ea3d e453 9c3d
00000290: de21 06be 8321 5abd 3da0 10be 4dd4 483d
000002a0: 1636 123e 4acb bd3d 808a 3d3e 7211 c13d
000002b0: 6363 dd3c 2f7b 47bd 1e97 163e bbe4 0dbe
000002c0: 0e16 0e3e 7f4a a5bd cad7 3c3e 2991 03be
000002d0: 0c6d 063e df7d fbbd bfd8 703d 8fd4 e23d
000002e0: 5fbd 2abe 864d cb3d 3183 aa3d 25bf 22bc
000002f0: a3f3 e53d d279 8a3d 0d02 b8bd 2fd9 fe3d

rnn.weight_hh_l0 f4 [192, 64]
0.00406919 -0.11625748 0.047571838 0.06772485 -0.048013512 0.11764067 0.02600841 -0.04866316
-0.066494964 -0.14264213 -0.14258696 0.00637243 0.09104883 0.017394425 0.012589971 0.19210435
0.104312606 0.07080397 0.15020803 0.103460714 -0.038863234 0.12077969 -0.018531041 0.06972267
-0.027952734 0.071201354 -0.12348517 -0.053866293 0.04434208 -0.08210092 -0.101402976 -0.12552404
0.12848665 0.10266227 -0.00093271997 -0.028292552 -0.07585449 0.027266467 -0.011714962 0.050351452
-0.12979177 0.080465436 -0.045613553 0.027177235 0.05295141 -0.009755 -0.020202141 0.006081746
-0.085864425 0.095654614 -0.012407351 0.11362783 0.012908709 -0.013548592 -0.014639816 0.003305761
0.10646556 -0.12613988 -0.096288644 -0.065266915 -0.088460974 0.07266344 -0.072496936 0.08517575
0.010977246 0.25428843 0.06104438 -0.084922954 -0.06324198 -0.043076437 0.08412214 0.037907496
-0.07342253 -0.011141967 0.13746355 -0.11687986 0.047404844 -0.088254206 0.0053682793 -0.029571593
0.053883437 -0.124926284 -0.16900417 -0.0074701076 0.055281203 -0.13648963 -0.024296938 0.16316696
0.029571917 0.019543793 0.17321317 0.009942033 0.026361648 -0.03294824 0.12901534 -0.059622444
0.13002189 -0.1105235 0.10805081 -0.01361424 0.0468767 0.0118073765 -6.1891726e-05 -0.13079196
-0.07523466 0.06920623 -0.0070271255 0.12079322 -0.05601386 -0.1754292 0.1149075 -0.026156692
-0.011830768 -0.022126107 0.09335257 -0.05666755 0.14122151 0.082488135 -0.01566365 -0.09673569
-0.17538895 0.17858358 0.11599342 -0.039257403 0.072847806 0.055996347 -0.103786945 0.11945241
-0.027357211 -0.09807388 0.12817961 0.086795054 -0.107983775 -0.09049006 -0.06383691 0.057964638
-0.035840247 0.06312836 -0.0395523 -0.03830672 0.030408708 0.015588342 -0.03359697 0.118569076
0.11983455 -0.08496863 -0.026191063 -0.04843674 0.047157805 0.01742473 0.084274694 0.015242875
-0.056417763 -0.0332262 0.034372147 -0.08042883 0.0019795028 0.11180948 -0.051069148 -0.1250815
-0.07032433 -0.08742293 0.054269437 0.07078461 -0.15336978 0.006564674 -0.00052934216 -0.09033892
0.018987203 0.009060334 -0.037844114 -0.023999272 0.1458726 0.051900342 0.10104885 -0.09852764
-0.048366744 0.16259858 0.07602574 0.05349629 -0.06520099 0.122170724 0.09614088 -0.05790225
0.20023145 -0.04666392 0.07914612 -0.09385119 0.0052111642 0.065088555 -0.11983492 -0.13604194
0.06672339 -0.008257264 0.09268649 0.09835848 -0.057151426 0.04196807 -0.13114646 -0.017491028
0.05268837 -0.15321122 -0.065797865 0.13543737 -0.043455414 -0.022892103 0.008207474 -0.03519197
0.083490394 0.040483993 0.05990067 0.194028 -0.05419432 0.03384839 -0.008996651 0.03224524
-0.092351116 -0.052646678 0.06903666 0.11746419 -0.1301352 -0.043113034 -0.12876673 -0.017376445
-0.14081004 -0.12030541 -0.14000797 -0.12961684 -0.036409542 -0.006292632 -0.065875724 0.026552023
-0.06939244 0.082119375 -0.13139832 0.014775222 0.009102945 -0.08001435 0.011726632 0.10456913
0.04749694 -0.04497942 -0.09969636 0.02241589 0.04210172 0.10918342 0.03587044 -0.020263141
-0.025897212 -0.10404709 -0.047759082 -0.0058417395 0.040735085 0.08686562 -0.034330305 -0.004589583
00000000: d756 853b 6718 eebd b0da 423d 53b3 8a3d
00000010: d1a9 44bd 97ed f03d 970f d53c 0653 47bd
00000020: 832e 88bd c710 12be 5102 12be d1cf d03b
00000030: cf77 ba3d c17e 8e3c 2a46 4e3c 01b7 443e
00000040: d9a1 d53d ac01 913d 22d0 193e 36e3 d33d
00000050: 0e2f 1fbd 585b f73d 69ce 97bc c2ca 8e3d
00000060: 22fd e4bc 04d2 913d cbe5 fcbd e7a2 5cbd
00000070: 0aa0 353d 8724 a8bd 5dac cfbd 6089 00be
00000080: 0192 033e 9940 d23d c781 74ba c8c5 e7bc
00000090: 9959 9bbd ed5d df3c 1df0 3fbc 533d 4e3d
000000a0: 22e8 04be 10cb a43d 47d5 3abd cba2 de3c
000000b0: 94e3 583d 6fd3 1fbc f67e a5bc 6249 c73b
000000c0: b0d9 afbd 91e6 c33d 3448 4bbc b5b5 e83d
000000d0: 0d7f 533c eafa 5dbc d7db 6fbc 77a5 583b
000000e0: 9e0a da3d d02a 01be fb32 c5bd a9aa 85bd
000000f0: 072b b5bd 92d0 943d 4679 94bd a070 ae3d
00000100: e8d9 333c 1832 823e ac09 7a3d 16ec adbd
00000110: 0385 81bd eb70 30bd 3b48 ac3d e444 1b3d
00000120: 8d5e 96bd cc8c 36bc 3fc3 0c3e b55e efbd
00000130: 952b 423d 9fbe b4bd 64e8 af3b 2040 f2bc
00000140: e1b4 5c3d 5ad9 ffbd 6e0f 2dbe cec7 f4bb
00000150: 8b6e 623d f0c3 0bbe 5f0a c7bc 3d15 273e
00000160: ce40 f23c 4e1a a03c cb5e 313e e9e3 223c
00000170: 62f4 d73c bcf4 06bd 991c 043e aa36 74bd
00000180: 7524 053e 255a e2bd be49 dd3d 430e 5fbc
00000190: c801 403d ba73 413c decb 81b8 54ee 05be
000001a0: a114 9abd ffbb 8d3d cd43 e6bb 7062 f73d
000001b0: ca6e 65bd b6a3 33be a054 eb3d 8f46 d6bc
000001c0: d6d5 41bc cf41 b5bc a22f bf3d 3c1c 68bd
000001d0: 5f9c 103e 8aef a83d 0e51 80bc 5d1d c6bd
000001e0: 2999 33be 9dde 363e f58d ed3d 5fcc 20bd
000001f0: 3b31 953d 6d5c 653d 408e d4bd 77a3 f43d
00000200: 3b1c e0bc f5da c8bd 8441 033e 9bc1 b13d
00000210: 9926 ddbd da52 b9bd edbc 82bd 546c 6d3d
00000220: 39cd 12bd 7149 813d 9801 22bd 82e7 1cbd
00000230: af1b f93c 3f66 7f3c fa9c 09bd 58d4 f23d
00000240: d16b f53d 0804 aebd a48e d6bc 9a65 46bd
00000250: 8b28 413d 4fbe 8e3c 3698 ac3d 40bd 793c
00000260: 5016 67bd 3218 08bd cfc9 0c3d dfb7 a4bd
00000270: 8cba 013b 5efc e43d e22d 51bd 5d15 00be
00000280: 3406 90bd cb0a b3bd a149 5e3d 86f7 903d
00000290: f80c 1dbe 7a1c d73b 8dc3 0aba 9d03 b9bd
000002a0: 0d8b 9b3c cc71 143c 6e02 1bbd 1f9a c4bc
000002b0: a05f 153e 7495 543d b3f2 ce3d dcc8 c9bd
000002c0: 351c 46bd 3e80 263e 62b3 9b3d ed1e 5b3d
000002d0: 1988 85bd a534 fa3d 82e5 c43d e92a 6dbd
000002e0: 7909 4d3e ab22 3fbd 5c17 a23d 0d35 c0bd
000002f0: 6ac2 aa3b 264d 853d 036c f5bd 944e 0bbe
00000300: 46a6 883d 7a49 07bc 6ad2 bd3d 2c70 c93d
00000310: 9d17 6abd b6e6 2b3d 424b 06be 5849 8fbc
00000320: c3cf 573d 67e3 1cbe 08c1 86bd 18b0 0a3e
00000330: 4efe 31bd 3888 bbbc a478 063c 7525 10bd
00000340: 03fd aa3d 8bd2 253d 685a 753d 47af 463e
00000350: ddfa 5dbd 9ca4 0a3d b066 13bc 9613 043d
00000360: 9522 bdbd 0ba4 57bd 1863 8d3d 1191 f03d
00000370: 2942 05be 4b97 30bd 6ddb 03be 0c59 8ebc
00000380: 8230 10be af62 f6bd 405e 0fbe 47ba 04be
00000390: 2c22 15bd 6c32 cebb dae9 86bd a183 d93c
000003a0: a01d 8ebd 342e a83d 488d 06be c613 723c
000003b0: 8524 153c 90de a3bd 0f21 403c 5728 d63d
000003c0: 278c 423d 573c 38bd 9b2d ccbd 87a1 b73c
000003d0: da72 2c3d 8f9b df3d e2ec 123d e3fe a5bc
000003e0: 6426 d4bc a416 d5bd 079f 43bd 106c bfbb
000003f0: d5d9 263d 9ae6 b13d ef9d 0cbd 3664 96bb

rnn.bias_ih_l0 f4 [192]
-0.09034947 0.088440135 -0.10786537 0.018010091 -0.11923939 0.13159235 0.17632389 -0.0026376601
-0.04857091 -0.0817407 -0.03435726 0.0061566103 0.12662323 0.0932374 -0.06131783 0.00025436268
-0.051914573 0.01714463 -0.049076308 0.015665658 0.033517465 -0.0637074 -0.098100714 0.105967276
0.02087896 0.088342436 0.08992919 0.094047494 0.115405664 0.112912185 0.070944116 -0.10786286
-0.028568994 -0.07523387 -0.062068198 -0.046108738 -0.14645606 -0.085649185 0.14777274 0.04985914
0.027263157 0.059005294 -0.014305748 0.08611336 -0.1040946 -0.10611119 -0.014827573 -0.050313048
-0.054213688 0.06670433 0.124233566 -0.058077782 -0.06296545 0.1240328 0.07561484 0.06793149
-0.07745164 -0.03691801 -0.017970826 0.13363105 0.09834078 -0.046930205 0.03873678 0.057846338
-0.6012634 -0.7070308 -0.30068785 0.22363907 -0.027031967 -0.49448404 -0.43297413 -0.31757054
-0.015309018 -0.40677875 -0.3803821 -0.37267986 -0.41814455 -0.27585745 -0.5562729 0.079814546
-0.20912632 -0.5008975 -0.25275755 -0.70286477 -0.33668408 -0.13048984 -0.13613357 -0.4074943
-0.08119419 -0.26861936 -0.40759808 -0.42014804 -0.30279347 -0.34282246 -0.47701272 -0.33783835
-0.47695145 -0.21396013 -0.38505706 -0.6326706 -0.31893012 -0.37067354 -0.24204655 -0.3992309
-0.35731566 -0.3239651 -0.21927407 -0.4745815 0.18468429 -0.563547 -0.4726722 -0.258935
-0.7167826 -0.05977975 -0.5119127 -0.2789678 -0.3540632 -0.5357936 -0.21179141 -0.3689409
-0.49598128 -0.427644 -0.25631657 -0.22160299 -0.56142706 -0.20833346 -0.4969477 -0.40503624
-0.11391227 0.07529165 -0.12518223 0.09833916 -0.010670557 -0.014733768 -0.080763705 0.08535924
0.036734685 -0.021535954 0.03380474 0.17311226 0.029132565 0.038812123 0.11916593 0.019503707
0.047247414 -0.02196796 -0.056482345 -0.089593835 0.10469145 -0.109590985 -0.03050183 -0.076129794
0.03535868 0.14304787 0.037458163 -0.090166084 -0.103025116 0.02251368 0.14018477 0.050125767
-0.16254498 -0.09976005 -0.11325771 0.07185076 -0.088119075 -0.060742423 0.17360884 -0.09086317
-0.07829797 -0.1199206 -0.023961244 0.117178336 0.024632089 -0.12902716 -0.07783258 -0.049914397
-0.0065690693 0.052793667 -0.04687353 0.09733981 -0.1319464 0.035566267 -0.12503612 -0.13688742
-0.08249835 -0.0020014634 -0.024397753 0.07724679 0.10310773 0.109486885 0.083891265 -0.054264165
00000000: 2509 b9bd 1a20 b53d 85e8 dcbd e689 933c
00000010: c833 f4bd 25c0 063e 408e 343e 98dc 2cbb
00000020: 4af2 46bd ab67 a7bd 33ba 0cbd 64bd c93b
00000030: 85a9 013e 40f3 be3d 6828 7bbd fb5b 8539
00000040: 60a4 54bd e572 8c3c 3d04 49bd 4455 803c
00000050: 9c49 093d 0679 82bd 07e9 c8bd 5f05 d93d
00000060: 5a0a ab3c e1ec b43d cc2c b83d f99b c03d
00000070: ce59 ec3d 813e e73d 264b 913d 34e7 dcbd
00000080: 8609 eabc 3714 9abd 393b 7ebd 84dc 3cbd
00000090: 94f8 15be d768 afbd bd51 173e 1939 4c3d
000000a0: fc56 df3c 89af 713d a862 6abc 345c b03d
000000b0: 8d2f d5bd d350 d9bd 59ef 72bc 0e15 4ebd
000000c0: 2c0f 5ebd 489c 883d 2b6e fe3d f8e2 6dbd
000000d0: 08f4 80bd e904 fe3d f4db 9a3d aa1f 8b3d
000000e0: f79e 9ebd 5737 17bd 8e37 93bc 94d6 083e
000000f0: e466 c93d e339 40bd 75aa 1e3d 48f0 6c3d
00000100: 66ec 19bf f8ff 34bf c2f3 99be a401 653e
00000110: 2572 ddbc 032d fdbe c9ae ddbe 9b98 a2be
00000120: add2 7abc 4e45 d0be 71c1 c2be e5cf bebe
00000130: 0b17 d6be 303d 8dbe e767 0ebf cf75 a33d
00000140: 3625 56be d23a 00bf 7069 81be f2ee 33bf
00000150: db61 acbe 219f 05be 9966 0bbe 18a3 d0be
00000160: 2449 a6bd 7a88 89be b2b0 d0be a51d d7be
00000170: bf07 9bbe 6d86 afbe 033b f4be 26f9 acbe
00000180: fb32 f4be 5d18 5bbe 3326 c5be b3f6 21bf
00000190: cf4a a3be ecc8 bdbe 0ddb 77be fe67 ccbe
000001a0: 14f2 b6be c1de a5be 6289 60be 59fc f2be
000001b0: e11d 3d3e 9e44 10bf 1702 f2be 2193 84be
000001c0: 117f 37bf 9cdb 74bd b60c 03bf ded4 8ebe
000001d0: c647 b5be c529 09bf d9df 58be d2e5 bcbe
000001e0: 42f1 fdbe 28f4 dabe ed3b 83be e5eb 62be
000001f0: afb9 0fbf 5e55 55be ee6f febe e960 cfbe
00000200: d64a e9bd 8232 9a3d c52f 00be 0b66 c93d
00000210: 8fd3 2ebc e765 71bc 7167 a5bd d3d0 ae3d
00000220: 1c77 163d 2b6c b0bc d776 0a3d 5744 313e
00000230: 6ba7 ee3c 76f9 1e3d 440d f43d 3dc6 9f3c
00000240: 8186 413d 27f6 b3bc 085a 67bd f97c b7bd
00000250: 7968 d63d 3d71 e0bd f9de f9bc f0e9 9bbd
00000260: 43d4 103d 247b 123e bb6d 193d ffa8 b8bd
00000270: d5fe d2bd 9c6e b83c 998c 0f3e ad50 4d3d
00000280: 3172 26be ff4e ccbd a9f3 e7bd 7e26 933d
00000290: c677 b4bd 0ccd 78bd 84c6 313e 7816 babd
000002a0: b05a a0bd ee98 f5bd 5f4a c4bc 32fb ef3d
000002b0: 3cc9 c93c b21f 04be b066 9fbd 0a73 4cbd
000002c0: 5941 d7bb 2c3e 583d 75fe 3fbd 185a c73d
000002d0: f51c 07be efad 113d 7809 00be 372c 0cbe
000002e0: e5f4 a8bd fc2a 03bb ccdd c7bc 9133 9e3d
000002f0: 252a d33d a93a e03d 2fcf ab3d 1a44 5ebd

rnn.bias_hh_l0 f4 [192]
0.0069696093 0.09943538 -0.1233182 0.08212569 -0.07735081 0.014708628 0.12897417 0.10716482
-0.13255583 0.066821285 0.10504269 0.02174984 0.1428918 -0.07530278 -0.1219685 -0.06332068
0.05720843 -0.021477025 -0.021665795 -0.15482257 -0.08444426 0.075653814 0.08782705 -0.06428025
0.0732082 0.030150462 -0.013534529 -0.09032146 -0.029483616 0.047293957 0.032195255 0.06140128
-0.027395504 0.0076893875 0.002280999 0.038340006 -0.08850723 -0.013296395 -0.05224439 -0.02384401
0.054011844 -0.12862216 -0.047120865 -0.07918155 0.101388656 -0.14439127 -0.06996643 -0.056571882
-0.08553669 0.08096666 0.06340554 -0.0029048827 0.14842278 -0.04787163 0.094506904 0.10670195
-0.005583447 0.08973393 0.032743916 -0.02625308 -0.017878167 -0.09790757 -0.008091646 0.06330097
-0.5706363 -0.83756465 -0.41071668 0.19990808 0.0015979471 -0.56880844 -0.38890055 -0.2031285
-0.021482017 -0.41175777 -0.52659774 -0.24831273 -0.43914214 -0.34023803 -0.41347185 0.09028313
-0.113683276 -0.6785582 -0.31655014 -0.5940656 -0.51210946 -0.030221298 -0.1222028 -0.50755394
-0.038906075 -0.25734618 -0.42162016 -0.35775903 -0.18622375 -0.1493457 -0.44988033 -0.25176612
-0.5970512 -0.22669542 -0.3329237 -0.7255351 -0.3187909 -0.4287392 -0.2679262 -0.3784734
-0.5268659 -0.5194545 -0.26571482 -0.5071399 0.10976403 -0.43779066 -0.31409934 -0.38104326
-0.5349192 -0.21727222 -0.40829915 -0.35604224 -0.41274115 -0.44147587 -0.12137959 -0.31087708
-0.60396755 -0.35999614 -0.18071073 -0.39845327 -0.47513133 -0.05229154 -0.4891895 -0.49207026
0.09532851 0.04874124 -0.007660502 0.1317473 -0.120305106 -0.059695493 0.009066475 0.053864058
0.028029865 0.0513791 0.016816208 0.09840985 0.08525684 -0.034000367 -0.10054155 -0.07382704
-0.115583576 0.133735 -0.1277388 -0.008841248 -0.08960178 0.011641719 -0.12726861 0.098904796
-0.1036463 0.049803436 0.03441306 -0.08088406 -0.121044934 0.05583498 0.11297768 0.128232
0.06509394 -0.000648103 0.09264277 0.014217716 0.10098238 -0.11905079 0.13905008 -0.104166426
0.111040615 -0.0076943734 -0.04606699 -0.04104263 0.023966195 -0.0016696984 0.10614288 0.15348476
-0.02267292 -0.039689545 -0.09225041 0.08048527 -0.043431755 0.1294419 -0.071150236 -0.13150541
0.08593517 0.024490608 0.0865868 0.06080766 0.057879414 -0.10342874 0.10511374 -0.17847222
00000000: 5261 e43b c7a4 cb3d 418e fcbd 8431 a83d
00000010: 1a6a 9ebd 75fc 703c ce11 043e 3b79 db3d
00000020: b7bc 07be 99d9 883d 9f20 d73d b82c b23c
00000030: 3a52 123e 5838 9abd 9fca f9bd 46ae 81bd
00000040: 6353 6a3d 96f0 afbc 777c b1bc cf89 1ebe
00000050: 1df1 acbd 63f0 9a3d abde b33d 5da5 83bd
00000060: 2eee 953d 1afe f63c eebf 5dbc 75fa b8bd
00000070: a087 f1bc 4fb7 413d 2cdf 033d e97f 7b3d
00000080: 896c e0bc 42f7 fb3b d07c 153b 690a 1d3d
00000090: 4743 b5bd 1fd9 59bc 37fe 55bd 8354 c3bc
000000a0: 863b 5d3d 87b5 03be cf01 41bd f029 a2bd
000000b0: dba4 cf3d 4edb 13be 8f4a 8fbd ebb7 67bd
000000c0: dc2d afbd d9d1 a53d c4da 813d d85f 3ebb
000000d0: 24fc 173e 0b15 44bd d68c c13d 8d86 da3d
000000e0: 59f5 b6bb 6cc6 b73d 7c1e 063d b310 d7bc
000000f0: 3c75 92bc c483 c8bd d392 04bc f0a3 813d
00000100: 3815 12bf a36a 56bf 7549 d2be b4b4 4c3e
00000110: 3572 d13a 6e9d 11bf f91d c7be eb00 50be
00000120: 0efb afbc ead1 d2be 1ccf 06bf b145 7ebe
00000130: 3dd7 e0be ae33 aebe 95b2 d3be 5de6 b83d
00000140: c7d2 e8bd fdb5 2dbf dc12 a2be af14 18bf
00000150: 9b19 03bf a892 f7bc 7645 fabd 0eef 01bf
00000160: fa5b 1fbd e1c2 83be 99de d7be 312c b7be
00000170: 70b1 3ebe 14ee 18be b756 e6be 7de7 80be
00000180: 59d8 18bf d822 68be fa74 aabe abbc 39bf
00000190: 9038 a3be b483 dbbe 9f2d 89be 44c7 c1be
000001a0: afe0 06bf f8fa 04bf c60b 88be ecd3 01bf
000001b0: f7cb e03d 1926 e0be a1d1 a0be 1a18 c3be
000001c0: 77f0 08bf 9c7c 5ebe 960c d1be 2b4b b6be
000001d0: cf52 d3be 2009 e2be dd95 f8bd 482b 9fbe
000001e0: 9e9d 1abf 6a51 b8be 3c0c 39be 1102 ccbe
000001f0: 6a44 f3be a72f 56bd 0c77 fabe a2f0 fbbe
00000200: 983b c33d e5a4 473d f304 fbbb c4e8 063e
00000210: 8662 f6bd 4383 74bd 8d8b 143c 8fa0 5c3d
00000220: e39e e53c e472 523d 25c2 893c 1a8b c93d
00000230: 239b ae3d f843 0bbd bae8 cdbd a232 97bd
00000240: 15b7 ecbd d4f1 083e f6cd 02be e2da 10bc
00000250: 2381 b7bd e9bc 3e3c b452 02be 998e ca3d
00000260: 8344 d4bd b0fe 4b3d b5f4 0c3d 8ba6 a5bd
00000270: 68e6 f7bd 38b3 643d d860 e73d 404f 033e
00000280: f94f 853d 75e5 29ba 7ebb bd3d 6cf1 683c
00000290: dacf ce3d e7d0 f3bd 2563 0e3e 3555 d5bd
000002a0: 4369 e33d 1521 fcbb bdb0 3cbd 511c 28bd
000002b0: c154 c43c c8d9 daba 7061 d93d 1c2b 1d3e
000002c0: 8fbc b9bc 8191 22bd c8ed bcbd 76d5 a43d
000002d0: 7fe5 31bd 6b8c 043e 37b7 91bd 5ba9 06be
000002e0: c7fe af3d 87a0 c83c 6c54 b13d 7411 793d
000002f0: f712 6d3d 72d2 d3bd df45 d73d 6cc1 36be

rnn.weight_ih_l0_reverse f4 [192, 1]
0.19206555 -0.085325934 -0.08323544 -0.09127827 0.03241915 -0.13437374 -0.19601607 0.19428414
-0.036369007 -0.10585269 0.04351367 -0.06446142 0.21075054 -0.14276111 -0.060065687 -0.23183537
0.12909561 -0.06576044 0.19329336 -0.122286186 0.0792679 -0.18640761 -0.06908425 -0.15454978
-0.08733628 0.0640344 -0.1541652 0.05385024 0.054441243 0.14865811 -0.09578212 -0.31125093
-0.12366086 0.04513762 -0.07511058 0.09287289 -0.08582065 0.06875752 0.11275546 -0.13573678
0.056523167 -0.07236034 -0.019428818 0.21340095 0.024691783 -0.025008032 -0.02852712 -0.21949649
-0.08895439 -0.04675716 -0.113680415 0.066998646 -0.0773237 -0.13153896 0.04053324 0.27933866
0.016829405 -0.10458003 -0.025098586 0.20200938 -0.14808883 -0.0523824 -0.033103354 -0.015011566
0.06305971 -0.1106021 0.20089853 -0.08375816 -0.1049991 -0.04917091 -0.43414545 0.17688565
0.019707028 -0.15509282 -0.2644645 0.28726187 0.14596108 -0.015065435 -0.0059822327 -0.03744493
0.009129874 -0.0627599 0.20155515 0.30174065 0.06845319 -0.16077022 -0.083356656 -0.14633444
-0.0872534 -0.03996979 -0.2325727 -0.023614852 0.1727615 0.03332313 -0.10882649 -0.1488351
0.009920336 0.04959846 -0.077642664 -0.04446374 0.037402626 -0.13593838 0.17590663 -0.11035392
0.082715355 -0.03416614 -0.17437576 0.12308869 -0.10985244 -0.056821 0.12055603 0.079271145
-0.20236382 0.12006693 -0.36936465 -0.032539938 -0.13334122 -0.061154198 0.028125776 0.14969887
-0.22185747 -0.07412338 -0.14331716 -0.031398132 -0.021766864 -0.09119148 0.13269839 -0.031392157
-0.15899548 0.112544656 0.117402665 -0.14684263 0.11627686 0.13244028 -0.07137944 0.1763652
0.16933744 0.122035325 0.11342999 -0.15277688 0.14629734 -0.1737296 0.15779196 0.1145827
-0.06887053 0.10598751 -0.15883271 0.12433685 -0.12784548 0.08874873 0.10842198 -0.1465804
0.16069943 -0.04273052 0.08883131 -0.04060771 0.14269008 0.033566862 -0.15749873 -0.11602219
-0.13880111 -0.027418533 -0.083951846 0.13504477 0.18286268 -0.06876043 -0.13754031 0.06409987
-0.07856835 -0.1358597 -0.10967511 -0.16516551 0.10414771 0.13638322 -0.11260019 -0.1391949
-0.10450218 -0.1413147 0.110492155 -0.006804812 -0.1233335 0.13752735 -0.11523148 0.13229255
0.093655564 -0.11613551 -0.12928441 0.16013022 -0.1551841 0.1463204 -0.08540572 -0.17829332
00000000: d5ac 443e 5dbf aebd 5877 aabd 1af0 babd
00000010: f1c9 043d 4599 09be 70b8 48be 6cf2 463e
00000020: abf7 14bd 4cc9 d8bd 643b 323d 5904 84bd
00000030: fdce 573e f82f 12be 7007 76bd 4066 6dbe
00000040: a431 043e 69ad 86bd b2ee 453e 2e71 fabd
00000050: 3557 a23d a3e1 3ebe 0b7c 8dbd 4c42 1ebe
00000060: 5ddd b2bd 7824 833d 7bdd 1dbe 1292 5c3d
00000070: c8fd 5e3d d539 183e 6b29 c4bd 485c 9fbe
00000080: e841 fdbd 3ae2 383d 93d3 99bd 2434 be3d
00000090: bdc2 afbd bed0 8c3d 56ec e63d 95fe 0abe
000000a0: d684 673d a831 94bd 2f29 9fbc c785 5a3e
000000b0: 6c46 ca3c a5dd ccbc b5b1 e9bc b0c3 60be
000000c0: b82d b6bd 7084 3fbd 47d1 e8bd 9636 893d
000000d0: e35b 9ebd 26b2 06be 2f06 263d 7a05 8f3e
000000e0: d2dd 893c 0e2e d6bd 8d9b cdbc 8cdb 4e3e
000000f0: 99a4 17be ed8e 56bd 6297 07bd 12f3 75bc
00000100: 7325 813d 5b83 e2bd 58b8 4d3e 6689 abbd
00000110: c509 d7bd 7067 49bd 5048 debe 8321 353e
00000120: a270 a13c a7d0 1ebe e467 87be fd13 933e
00000130: d276 153e 04d5 76bc 9b06 c4bb db5f 19bd
00000140: 7895 153c 4388 80bd 7964 4e3e c07d 9a3e
00000150: 3031 8c3d f3a0 24be e5b6 aabd b2d8 15be
00000160: e9b1 b2bd 5db7 23bd 8a27 6ebe ef73 c1bc
00000170: 64e8 303e d67d 083d 6ce0 debd 3a68 18be
00000180: e888 223c c127 4b3d 1e03 9fbd 9c1f 36bd
00000190: 7f33 193d 6e33 0bbe de20 343e 3c01 e2bd
000001a0: ab66 a93d cbf1 0bbd 8f8f 32be ec15 fc3d
000001b0: 51fa e0bd 23bd 68bd 14e6 f63d e958 a23d
000001c0: 7638 4fbe a7e5 f53d 5d1d bdbe 9948 05bd
000001d0: 9a8a 08be d37c 7abd 0768 e63c a94a 193e
000001e0: 9b2e 63be 00ce 97bd bcc1 12be 549b 00bd
000001f0: 6c50 b2bc 99c2 babd 16e2 073e 1095 00bd
00000200: b6cf 22be d07d e63d cf70 f03d ea5d 16be
00000210: 9022 ee3d 6d9e 073e 622f 92bd 1499 343e
00000220: cb66 2d3e a8ed f93d fc4d e83d 8b71 1cbe
00000230: f8ce 153e 2ce6 31be 3794 213e 56aa ea3d
00000240: fe0b 8dbd fb0f d93d 0ba5 22be 52a4 fe3d
00000250: ede9 02be e5c1 b53d 580c de3d 2c19 16be
00000260: 648e 243e 3306 2fbd 31ed b53d 4554 26bd
00000270: 591d 123e 687d 093d 5947 21be 0b9d edbd
00000280: e121 0ebe d59c e0bc f2ee abbd 2d49 0a3e
00000290: 5b40 3b3e 45d2 8cbd 5ed7 0cbe cb46 833d
000002a0: 71e8 a0bd ce1e 0bbe 589d e0bd 2621 29be
000002b0: 654b d53d 0ba8 0b3e ee9a e6bd 1c89 0ebe
000002c0: 3d05 d6bd cdb4 10be b649 e23d e6fa debb
000002d0: 4696 fcbd f8d3 0c3e 7bfe ebbd b377 073e
000002e0: 7dce bf3d 74d8 edbd 2263 04be 2df9 233e
000002f0: 95e8 1ebe 04d5 153e 32e9 aebd 8692 36be

rnn.weight_hh_l0_reverse f4 [192, 64]
-0.18062143 0.14348264 0.031489823 -0.0743058 0.048987422 -0.0060405335 -0.10086982 0.05178468
0.023795495 0.0066561652 0.09886269 -0.081122205 0.15400824 -0.06301421 -0.026605956 0.062321197
-0.012725807 0.004653608 0.07328794 -0.05590809 -0.100202605 0.09132363 0.08851633 -0.09691454
0.17378002 -0.08451254 0.122595504 0.07144134 0.057871826 0.02668653 0.027585816 -0.11039335
-0.008470318 0.096799396 -0.14374495 0.15186599 0.0054412168 0.06739975 -0.19254293 0.024468906
-0.08620424 -0.07371518 -0.0047622737 0.06884559 -0.08756938 0.12811865 -0.15378465 -0.11889935
-0.16732356 -0.12146092 0.01581598 0.026599806 -0.083080746 0.1574171 0.07778508 -0.025268963
0.158845 -0.13849436 0.013961407 -0.06777514 -0.0018986235 0.1663749 -0.037398443 -0.12196954
0.16665722 -0.051374074 -0.011304149 0.0063593327 -0.11648574 0.019608669 -0.07416851 0.08165703
0.03788997 0.045273233 -0.03967401 -0.064110585 -0.20231473 0.015445073 -0.047764134 0.0873058
-0.058322802 0.07290501 0.14714041 0.014553644 -0.052006487 -0.05432304 0.017402632 0.031104678
-0.071121536 -0.0628401 0.17485459 -0.06363075 -0.06993524 -0.009358568 0.021134205 -0.09770168
-0.100581735 -0.06348779 -0.0209498 -0.1033282 -0.07239554 0.028139967 0.10968358 -0.1319459
0.012559256 0.041930374 0.047109574 0.066438735 -0.12214004 -0.013362466 0.14588489 -0.015244631
-0.037641212 0.05545263 0.05275533 0.06191616 -0.08434179 0.005446458 -0.062375292 0.023687685
0.12481926 0.08705991 -0.020368407 -0.103052005 0.02921542 -0.06046228 -0.076273106 0.1306976
-0.0021036328 -0.042049415 -0.03646201 -0.05591817 -0.11624245 0.00044373918 0.08764868 0.015838807
-0.06879745 -0.06372216 -0.016722333 -0.09548798 -0.10192402 -0.078731835 -0.06759368 0.058259286
-0.050570644 0.114646286 -0.0336672 0.087076776 -0.03847161 0.31638506 0.11118889 0.09069464
-0.10649471 0.024925105 0.2022846 -0.083215825 0.06946117 -0.014935629 -0.05136421 -0.05275937
-0.14064111 -0.024134377 -0.090437286 0.041300837 0.0678504 -0.030648986 0.009102638 -0.08190562
0.10632245 -0.1368275 -0.08325206 0.0039481902 -0.086906835 -0.0157559 0.076816194 0.10902714
-0.001150875 -0.06882889 0.0725802 -0.12692302 7.345938e-05 -0.033934396 0.08817813 -0.068165995
0.12974219 0.10679952 0.06166472 -0.114345 0.10101595 0.052145872 0.097981386 0.055048477
0.11850631 0.030842893 0.11277503 0.06320135 -0.07796282 -0.039199755 -0.15806878 0.11015537
0.12624265 -0.07011196 -0.106843166 0.106665164 -0.011286794 -0.056063373 0.01181582 0.08993822
0.1383789 -0.06676141 -0.09109523 0.078341655 -0.007383817 -0.060172476 -0.04988205 -0.010116909
0.016859768 -0.00014656823 -0.08194045 -0.02320252 0.10793741 -0.08463453 -0.06604415 -0.016476545
-0.056706544 -0.038545184 0.08480248 -0.022933554 0.038590945 -0.013528515 0.015422167 0.05791915
-0.084648155 0.09910181 -0.113886856 -0.077775836 0.04023295 0.0016287564 -0.12317096 0.023041802
-0.08587698 -0.16101322 0.009217134 -0.060237043 0.037981115 -0.08334132 0.058894575 -0.11035101
0.102177724 -0.12529682 0.05952199 0.061341543 0.09084882 -0.066561125 0.07331887 0.077239655
00000000: d3f4 38be 1ded 123e 79fb 003d a42d 98bd
00000010: 09a7 483d abef c5bb d694 cebd 2c1c 543d
00000020: c5ee c23c f61b da3b 8678 ca3d 6623 a6bd
00000030: 56b4 1d3e 980d 81bd bcf4 d9bc 8344 7f3d
00000040: e77f 50bc 4b7d 983b fd17 963d e2ff 64bd
00000050: 0637 cdbd e207 bb3d 0d48 b53d 217b c6bd
00000060: 64f3 313e e914 adbd 5a13 fb3d d64f 923d
00000070: 020b 6d3d b69d da3c a6fb e13c e915 e2bd
00000080: 17c7 0abc c33e c63d e031 13be c282 1b3e
00000090: 3c4c b23b e108 8a3d f929 45be 0473 c83c
000000a0: d98b b0bd fcf7 96bd d90c 9cbb ebfe 8c3d
000000b0: 9357 b3bd 8931 033e b979 1dbe 8181 f3bd
000000c0: de56 2bbe 81c0 f8bd 8490 813c d6e7 d93c
000000d0: 3d26 aabd f331 213e c94d 9f3d db00 cfbc
000000e0: 44a8 223e 77d1 0dbe 63be 643c b1cd 8abd
000000f0: 3cdb f8ba 2f5e 2a3e 1c2f 19bd 2bcb f9bd
00000100: 31a8 2a3e 9f6d 52bd 0a35 39bc f361 d03b
00000110: 1390 eebd 5ca2 a03c a9e5 97bd cd3b a73d
00000120: 8332 1b3d 6d70 393d 3781 22bd 694c 83bd
00000130: 982b 4fbe 550d 7d3c 53a4 43bd 62cd b23d
00000140: e4e3 6ebd 394f 953d faab 163e 6872 6e3c
00000150: c104 55bd d681 5ebd f78f 8e3c 3dcf fe3c
00000160: 2ba8 91bd 4fb2 80bd 150d 333e d750 82bd
00000170: 353a 8fbd ae54 19bc a421 ad3c d217 c8bd
00000180: ccfd cdbd e305 82bd ea9e abbc bc9d d3bd
00000190: 1d44 94bd ca85 e63c c9a1 e03d d31c 07be
000001a0: 56c5 4d3c 2fbf 2b3d f8f5 403d 0811 883d
000001b0: 8f24 fabd 3fee 5abc d962 153e 9ec4 79bc
000001c0: ac2d 1abd 4c22 633d f915 583d cd9b 7d3d
000001d0: 63bb acbd 3378 b23b 3c7d 7fbd ad0c c23c
000001e0: 3da1 ff3d 774c b23d a5db a6bc ee0c d3bd
000001f0: 2d55 ef3c 4ca7 77bd 1335 9cbd 97d5 053e
00000200: 1add 09bb 023c 2cbd 3059 15bd 730a 65bd
00000210: 8610 eebd aaa5 e839 2781 b33d 63c0 813c
00000220: ade5 8cbd c480 82bd 46fd 88bc 348f c3bd
00000230: 8abd d0bd 283e a1bd 8e6e 8abd 4aa1 6e3d
00000240: 2a23 4fbd accb ea3d 9ee6 09bd 4f55 b23d
00000250: 6894 1dbd 39fd a13e 00b7 e33d 1dbe b93d
00000260: e619 dabd bc2f cc3c b223 4f3e 0f6d aabd
00000270: a841 8e3d 92b4 74bc 4763 52bd 361a 58bd
00000280: 3904 10be 75b5 c5bc 2f37 b9bd 112b 293d
00000290: 27f5 8a3d 9513 fbbc 3b23 153c 22be a7bd
000002a0: 96bf d93d 821c 0cbe 0e80 aabd d25f 813b
000002b0: 36fc b1bd 8412 81bc cf51 9d3d 9f49 df3d
000002c0: f5d8 96ba 29f6 8cbd eea4 943d 1cf8 01be
000002d0: 340e 9a38 cbfe 0abd bc96 b43d 9d9a 8bbd
000002e0: 23db 043e b5b9 da3d 2594 7c3d b62d eabd
000002f0: 73e1 ce3d e996 553d 77aa c83d 837a 613d
00000300: 70b3 f23d 3caa fc3c 98f6 e63d b66f 813d
00000310: f9aa 9fbd ec8f 20bd c8dc 21be 2399 e13d
00000320: c145 013e dc96 8fbd 97d0 dabd 4473 da3d
00000330: 3fec 38bc b5a2 65bd 2497 413c 8831 b83d
00000340: 33b3 0d3e 35ba 88bd 2390 babd 9771 a03d
00000350: f2f3 f1bb 6a77 76bd 1f51 4cbd 64c1 25bc
00000360: 7f1d 8a3c 1cb0 19b9 65d0 a7bd 3613 bebc
00000370: 4a0e dd3d de54 adbd 2842 87bd d2f9 86bc
00000380: 1f45 68bd 8ee1 1dbd ecac ad3d 26df bbbc
00000390: 8a11 1e3d b4a6 5dbc 42ad 7c3c a13c 6d3d
000003a0: 035c adbd e4f5 ca3d 833d e9bd f048 9fbd
000003b0: 4ecb 243d ff7b d53a 0e41 fcbd 29c2 bc3c
000003c0: 45e0 afbd a6e0 24be 7603 173c 1ebb 76bd
000003d0: 1692 1b3d dbae aabd 703b 713d b6ff e1bd
000003e0: 8e42 d13d cf4d 00be 55cd 733d 4541 7b3d
000003f0: f20e ba3d 3351 88bd 3428 963d d32f 9e3d

rnn.bias_ih_l0_reverse f4 [192]
-0.114204854 0.104694344 0.03623101 0.065284826 -0.11532928 0.10926706 0.08167821 0.08924795
0.028527902 -0.09131369 -0.102235 -0.013823709 -0.0019340862 -0.12443953 -0.030324582 -0.01807415
-0.08314088 -0.02281337 0.14065908 -0.010178171 0.02226212 -0.05082361 -0.06354939 -0.056969523
0.0815683 0.042937256 0.108965844 0.10179491 -0.0154996365 -0.09115083 0.14238194 0.08464517
-0.0007321487 -0.05419875 -0.007427866 -0.06768974 -0.021200778 -0.02095895 -0.012712802 -0.09696577
-0.041741855 0.16401681 -0.11145572 -0.019826498 0.11351468 -0.018173013 -0.06987405 -0.07236749
-0.06139208 0.07082957 0.02588205 -0.020959336 0.06577558 0.11805525 0.004072335 -0.08354313
0.060098838 -0.07166874 -0.087715946 -0.06528923 0.00044948273 0.08057187 0.09730729 -0.01623798
-0.5097912 -0.5345717 -0.20567414 -0.3519971 -0.60166377 -0.1519545 -0.17087112 -0.53677654
-0.5100499 0.024292406 -0.33340707 -0.45594653 -0.39240885 -0.5139422 -0.52384233 0.23503637
-0.05770672 -0.23585197 -0.1460582 -0.37822354 -0.30454165 -0.25364542 -0.5348319 -0.3026706
-0.40386206 -0.34997874 -0.20629667 -0.2459225 -0.4159144 -0.07124836 -0.24312073 0.07143034
-0.501511 -0.3919577 -0.54134494 -0.3054213 -0.4317372 -0.3963244 -0.5426274 -0.3720938
-0.33991235 -0.30373752 -0.3921874 -0.2093762 -0.50409716 -0.253677 -0.53544885 0.08565206
-0.351187 -0.5594051 -0.010725416 -0.49626404 -0.21514341 -0.43010846 -0.41301563 -0.46166682
-0.37692595 -0.36399725 0.008704024 -0.5742194 -0.53955245 -0.52053726 -0.34284022 -0.47447616
-0.11774618 -0.08764012 0.073860824 -0.05519024 0.0341282 0.04685032 0.0033228747 0.10554159
0.09273035 -0.1196259 -0.11235246 -0.10128375 0.034262143 -0.046476044 -0.03704746 0.020344727
-0.02404571 -0.17345104 -0.13123338 0.14689846 -0.11707269 0.05148056 -0.104189694 -0.09703955
-0.11293548 -0.1108704 -0.012081055 -0.058313236 0.076350786 0.05141702 0.0003385572 0.02788228
-0.06579253 -0.093613 0.05618285 0.027336951 0.012047566 0.17965595 -0.06100538 0.07227891
-0.067873254 0.112237215 0.12089049 -0.032789595 -0.09840353 0.03961237 -0.108280204 -0.02556035
0.09619684 -0.16338317 -0.11705962 -0.12943253 0.14522667 -0.016991263 0.10045504 0.07404285
-0.09433469 -0.019012649 0.14860073 0.067915894 0.015346024 -0.06605719 -0.12954007 -0.08090124
00000000: 3ce4 e9bd fd69 d63d f866 143d 0db4 853d
00000010: c231 ecbd 69c7 df3d e846 a73d a1c7 b63d
00000020: 59b3 e93c ac02 bbbd 9560 d1bd d77c 62bc
00000030: 2a81 fdba 27da febd 426b f8bc 3d10 94bc
00000040: c445 aabd 1be3 babc ef08 103e 58c2 26bc
00000050: 0d5f b63c 6b2c 50bd 2f26 82bd e058 69bd
00000060: 480d a73d fade 2f3d 7c29 df3d da79 d03d
00000070: 30f2 7dbc 49ad babd 92cc 113e 725a ad3d
00000080: abed 3fba 82ff 5dbd 7565 f3bb eba0 8abd
00000090: 41ad adbc 1bb2 abbc 5b49 50bc fd95 c6bd
000000a0: 82f9 2abd 06f4 273e e642 e4bd 2e6b a2bc
000000b0: 627a e83d 92df 94bc 201a 8fbd 6835 94bd
000000c0: 4376 7bbd 180f 913d 9806 d43c eab2 abbc
000000d0: 59b5 863d f3c6 f13d 3971 853b a918 abbd
000000e0: 332a 763d 0fc7 92bd 6ba4 b3bd 5cb6 85bd
000000f0: 8da8 eb39 dd02 a53d 0b49 c73d 8305 85bc
00000100: ad81 02bf b1d9 08bf 3e9c 52be f738 b4be
00000110: a306 1abf f699 1bbe d7f8 2ebe 306a 09bf
00000120: a192 02bf de00 c73c 55b4 aabe d371 e9be
00000130: d0e9 c8be b791 03bf 881a 06bf 60ad 703e
00000140: e25d 6cbd 2e83 71be 4890 15be 84a6 c1be
00000150: e2ec 9bbe d0dd 81be beea 08bf a4f7 9abe
00000160: 02c7 cebe 6a30 b3be 6f3f 53be 1cd3 7bbe
00000170: bbf2 d4be a9ea 91bd a4f4 78be 124a 923d
00000180: 0663 00bf aeae c8be 9595 0abf 2e60 9cbe
00000190: a90c ddbe 08eb cabe a1e9 0abf 1483 bebe
000001a0: fe08 aebe 7c83 9bbe c9cc c8be b766 56be
000001b0: 830c 01bf f4e1 81be 2d13 09bf 596a af3d
000001c0: c8ce b3be 2c35 0fbf a8b9 2fbc 5216 febe
000001d0: 8e4e 5cbe 2d37 dcbe c976 d3be 985f ecbe
000001e0: 70fc c0be d95d babe 539b 0e3c 0b00 13bf
000001f0: 1c20 0abf ee41 05bf c188 afbe 8aee f2be
00000200: e924 f1bd aa7c b3bd 5844 973d 290f 62bd
00000210: 03ca 0b3d 1fe6 3f3d 96c4 593b 3026 d83d
00000220: 69e9 bd3d 6dfe f4bd 0c19 e6bd db6d cfbd
00000230: 7656 0c3d aa5d 3ebd 14bf 17bd fca9 a63c
00000240: 82fb c4bc 269d 31be 0b62 06be 8d6c 163e
00000250: cec3 efbd 48dd 523d 6861 d5bd acbc c6bd
00000260: b84a e7bd 0510 e3bd 9eef 45bc dcd9 6ebd
00000270: cd5d 9c3d a79a 523d 6180 b139 6169 e43c
00000280: 3cbe 86bd 2cb8 bfbd fd1f 663d bef1 df3c
00000290: 2763 453c bbf7 373e c7e0 79bd f706 943d
000002a0: 2201 8bbd a0dc e53d 6f95 f73d 624e 06bd
000002b0: ca87 c9bd 9540 223d 03c2 ddbd f063 d1bc
000002c0: d902 c53d eb4d 27be f4bc efbd f689 04be
000002d0: 4db6 143e 4331 8bbc 5fbb cd3d c7a3 973d
000002e0: 8c32 c1bd 6ac0 9bbc ca2a 183e 7d17 8b3d
000002f0: e46d 7b3c fe48 87bd 27a6 04be 8daf a5bd

rnn.bias_hh_l0_reverse f4 [192]
0.08550897 -0.08917389 -0.07700803 0.08770708 -0.08292481 0.04638372 -0.040304244 -0.06870378
0.005664606 -0.030160863 -0.12777749 -0.11988697 -0.03656923 0.014421445 -0.006833502 0.07162515
-0.06520026 0.09739214 0.07338086 0.020530807 -0.08679309 0.13241638 0.1031414 0.050526347
-0.020009212 -0.09978398 0.17326696 -0.0939212 -0.038836565 0.016384011 -0.07241209 0.017667076
-0.015476317 0.036603875 0.0132670775 0.11282308 -0.03917099 -0.05311817 0.020110985 -0.096715756
0.13465053 0.11329484 -0.036770917 -0.046903342 0.038033046 0.12957391 0.056432534 -0.1066011
-0.03526573 0.12149778 0.09721378 -0.10779431 0.031875752 0.056500003 0.08587879 0.112435006
0.048685353 -0.06864702 0.09022226 0.013175072 -0.075305715 -0.08389334 -0.12635878 -0.085559115
-0.5411593 -0.57176936 -0.20610338 -0.46365193 -0.54232347 -0.15611362 -0.0029873254 -0.40295407
-0.6038461 -0.087019086 -0.48280045 -0.4985 -0.36496904 -0.7040282 -0.48123822 0.15234774
-0.006781899 -0.2216267 -0.17244333 -0.42310578 -0.51446307 -0.31888488 -0.6159986 -0.46539566
-0.45230716 -0.28131554 -0.118959606 -0.23924623 -0.39925382 -0.061903995 -0.42661464 0.024813954
-0.33166692 -0.31417054 -0.5336728 -0.30793977 -0.37892592 -0.3410251 -0.60120744 -0.38728032
-0.3800772 -0.25443524 -0.61743236 -0.105295435 -0.6632273 -0.35357553 -0.49845806 -0.0012120977
-0.50979185 -0.34204215 0.13452554 -0.5872817 -0.2848175 -0.25882372 -0.38322064 -0.4977614
-0.33361763 -0.45748633 -0.13201219 -0.6259438 -0.40399945 -0.34385863 -0.34266317 -0.5085218
-0.05736784 0.018311044 0.034433786 0.06851806 0.011290926 -0.15234697 0.18869142 0.13196376
-0.006437579 -0.12671453 0.090305984 0.07429488 0.12964103 -0.039934028 0.0018492996 -0.1789157
-0.050969526 -0.07236066 -0.020377418 0.06078832 0.08732499 -0.13378282 -0.01718184 0.121117845
-0.14078002 0.08405139 -0.09712349 -0.056752577 0.041853834 0.14200325 -0.04871654 0.12703972
-0.025724199 -0.016841494 0.16400644 -0.046476033 -0.0066541107 0.07500646 -0.088898696 -0.08042444
-0.10315171 0.058896054 -0.10929975 8.5332176e-05 -0.14532527 -0.1361845 -0.027108984 -0.08751908
-0.004662892 -0.100021355 -0.09785823 0.107069165 0.1660521 -0.1272913 0.10361339 0.032822564
-0.05032499 0.15915395 0.14758018 0.044070642 0.1538181 -0.1352086 0.016987497 0.090617605
00000000: 541f af3d cda0 b6bd 63b6 9dbd c59f b33d
00000010: 7cd4 a9bd dbfc 3d3d 1016 25bd 91b4 8cbd
00000020: 299e b93b ea13 f7bc 1ad8 02be 4d87 f5bd
00000030: 9ec9 15bd ed47 6c3c 92eb dfbb 35b0 923d
00000040: b787 85bd 8875 c73d b448 963d 3930 a83c
00000050: 93c0 b1bd 2998 073e cc3b d33d b7f4 4e3d
00000060: 5cea a3bc 8b5b ccbd e56c 313e c259 c0bd
00000070: 1713 1fbd c337 863c ca4c 94bd 8bba 903c
00000080: 6190 7dbc f2ed 153d 285e 593c c90f e73d
00000090: c371 20bd 7092 59bd cbbf a43c e912 c6bd
000000a0: d4e1 093e 2007 e83d 1a9d 16bd b81d 40bd
000000b0: 8ac8 1b3d 06af 043e cd25 673d ad51 dabd
000000c0: cc72 10bd d4d3 f83d 0518 c73d 43c3 dcbd
000000d0: 2690 023d 8c6c 673d 38e1 af3d 5344 e63d
000000e0: 4b6a 473d cf96 8cbd 73c6 b83d 42dc 573c
000000f0: e239 9abd 45d0 abbd 3264 01be 9e39 afbd
00000100: 6a89 0abf 7a5f 12bf c40c 53be c963 edbe
00000110: b6d5 0abf 40dc 1fbe 01c7 43bb ff4f cebe
00000120: a895 1abf 1037 b2bd 9f31 f7be 643b ffbe
00000130: 39dd babe 313b 34bf db64 f6be 0c01 1c3e
00000140: b13a debb 1cf2 62be fc94 30be 52a1 d8be
00000150: dab3 03bf e144 a3be 16b2 1dbf 5748 eebe
00000160: ce94 e7be 9708 90be 18a1 f3bd f7fc 74be
00000170: ff6a ccbe 0b8f 7dbd 3c6d dabe a246 cb3c
00000180: 3fd0 a9be f6da a0be c89e 08bf 48aa 9dbe
00000190: 9402 c2be d89a aebe bbe8 19bf 9b49 c6be
000001a0: 7b99 c2be 5645 82be 0c10 1ebf 22a5 d7bd
000001b0: 44c9 29bf da07 b5be e535 ffbe 40df 9eba
000001c0: b881 02bf 2620 afbe 10c1 093e 1858 16bf
000001d0: 99d3 91be 8b84 84be 7f35 c4be 95da febe
000001e0: eecf aabe a63b eabe 342e 07be da3d 20bf
000001f0: 04d9 cebe 3d0e b0be 8c71 afbe 7c2e 02bf
00000200: 8afa 6abd 0b01 963c 710a 0d3d 3253 8c3d
00000210: 93fd 383c d800 1cbe 5338 413e 8221 073e
00000220: 54f2 d2bb 74c1 01be 58f2 b83d ea27 983d
00000230: 9ec0 043e dd91 23bd 3364 f23a ad35 37be
00000240: 6cc5 50bd d331 94bd 8bee a6bc 2cfd 783d
00000250: 72d7 b23d 5dfe 08be eec0 8cbc a20c f83d
00000260: a328 10be 2323 ac3d aee8 c6bd 6475 68bd
00000270: ed6e 2b3d 4d69 113e ff8a 47bd b316 023e
00000280: 8ebb d2bc 2cf7 89bc 4ef1 273e a75d 3ebd
00000290: ba0a dabb fd9c 993d 8510 b6bd 92b5 a4bd
000002a0: 3441 d3bd fd3c 713d 8cd8 dfbd 5df4 b238
000002b0: 26d0 14be f373 0bbe a913 debc 343d b3bd
000002c0: 2ccb 98bb ffd7 ccbd e569 c8bd 1447 db3d
000002d0: 9009 2a3e a758 02be 4233 d43d f470 063d
000002e0: 9421 4ebd 41f9 223e 421f 173e 6b83 343d
000002f0: 7e82 1d3e 2074 0abe 5d29 8b3c b995 b93d

rnn.weight_ih_l1 f4 [192, 128]
0.14969468 0.1751282 -0.09765216 -0.044566575 0.013901895 -0.14281031 0.014496815 -0.09330305
-0.0325586 0.17954499 -0.02398462 0.08791931 -0.033103023 0.1352392 -0.107795306 0.09721168
0.035293914 -0.026799921 -0.09522569 -0.17019522 -0.028640438 -0.12200484 -0.038235847 0.054272506
-0.11745009 0.015794255 0.030031366 0.084658526 -0.04004227 0.18760635 0.10333196 -0.053215798
-0.08833146 -4.6579676e-06 0.048238095 0.055081308 0.015557644 -0.088395774 0.04833965 0.09298738
0.103019536 -0.09925524 0.06066236 -0.034077816 0.025777044 0.07931863 0.016192084 0.03286403
0.21198612 -0.014817256 0.07868354 -0.010525955 -0.09867243 0.046497658 0.053928964 -0.124871746
-0.059309363 0.033209868 0.011344488 -0.085834816 0.105647825 -0.04617133 0.077442735 0.0070693484
0.042989984 -0.013272344 -0.01608361 -0.018871298 -0.06680513 0.11311926 0.05565691 0.06677078
-0.0057787276 0.02567212 0.07014338 -0.0033347602 0.14967167 -0.04867549 -0.0038369521 -0.09740702
-0.08083932 -0.10492913 -0.024843074 0.121521726 -0.010368464 -0.14225622 -0.0078091975 -0.011071663
0.012518818 0.115173094 0.044400014 -0.10465525 -0.04977584 -0.06532739 0.043548267 0.05825788
0.0118019385 -0.048766866 0.054569647 0.037201058 -0.019646944 0.09129838 -0.031159177 0.0027475348
-0.028521167 -0.07377458 -0.04490278 -0.061432038 0.013215933 -0.085266754 0.019622693 0.0065755113
0.060812965 -0.079686895 0.081061006 0.13688515 -0.05585438 -0.07549322 -0.08931891 -0.048320957
0.061668515 0.080322854 -0.06422039 0.032518957 -0.14588149 -0.03829659 -0.11750251 0.06834122
-0.13885784 0.16394722 0.0013372952 0.32926774 0.12942316 -0.1904807 -0.34691462 0.37183544
0.08234347 0.084707774 -0.057331298 0.5782627 0.1387116 -0.18549253 -0.06370419 -0.17039706
0.033960074 -0.115577064 -0.035845976 -0.1721376 0.08392625 0.104259044 0.23466808 -0.21903937
0.21821012 0.56377274 0.023237053 -0.049260452 -0.12056714 -0.04009805 0.032426815 0.10080504
-0.40709084 -0.08553004 -0.20397608 0.0555931 -0.13849205 -0.036892172 0.06668139 -0.029860249
0.074805915 -0.4480711 -0.15760268 -0.24179693 0.09002637 -0.08952221 -0.11673979 0.21289091
-0.08388053 0.16226709 -0.21277237 0.2611309 -0.086673215 0.33814007 -0.121244535 -0.1929268
-0.13311057 -0.20995253 -0.08411992 0.004930301 -0.012421074 -0.057451297 0.445472 0.2608416
-0.103780694 -0.1963893 -0.021903181 -0.11466025 -0.0022414932 -0.026644677 -0.041958593 0.023267537
0.11483909 -0.23034243 -0.3778582 -0.1355422 0.07149124 -0.16721237 0.07738834 -0.12469634
0.1346361 -0.12647231 -0.14986467 0.016494663 -0.067458905 0.06861622 -0.151382 0.028712701
-0.11897889 -0.03661702 0.1490157 -0.038082745 -0.018255426 0.16124238 0.090826556 0.0936162
0.02322594 -0.25478217 0.29039848 0.0428855 -0.00818983 0.1657456 -0.05453133 0.13272148
0.040087573 0.05147513 0.10364156 0.10137933 -0.09995933 -0.24942972 -0.13589421 0.12213254
0.15535133 0.03597228 -0.40847072 -0.27657902 0.1442689 0.08334528 0.20380273 0.06477777
-0.30693483 0.13199855 0.33045167 0.128988 -0.012839802 -0.3434009 0.081288725 -0.13762446
00000000: 9049 193e cf54 333e dbfd c7bd 718b 36bd
00000010: c6c4 633c de3c 12be 0d84 6d3c ab15 bfbd
00000020: 2b5c 05bd a4da 373e 657b c4bc 0a0f b43d
00000030: 0997 07bd 257c 0a3e c9c3 dcbd eb16 c73d
00000040: 5a90 103d 828b dbbc b005 c3bd a847 2ebe
00000050: 5a9f eabc acdd f9bd 319d 1cbd d94c 5e3d
00000060: ac89 f0bd f462 813c 5704 f63c 7361 ad3d
00000070: 5d03 24bd e11b 403e b59f d33d cff8 59bd
00000080: 20e7 b4bd a34b 9cb6 4f95 453d f09c 613d
00000090: 7de5 7e3c d808 b5bd ccff 453d 2b70 be3d
000000a0: e8fb d23d 5546 cbbd 1879 783d 2e95 0bbd
000000b0: 612a d33c ce71 a23d 43a5 843c 6f9c 063d
000000c0: e412 593e 13c4 72bc d624 a13d 0e75 2cbc
000000d0: c514 cabd 5474 3e3d 9ee4 5c3d c2bc ffbd
000000e0: 60ee 72bd 1207 083d 3bde 393c 2aca afbd
000000f0: e35d d83d 261e 3dbd 4c9a 9e3d fea5 e73b
00000100: 4416 303d 3f74 59bc c6c1 83bc fb97 9abc
00000110: 21d1 88bd 12ab e73d 80f8 633d 1ebf 883d
00000120: 7b5b bdbb 564e d23c 55a7 8f3d fe8b 5abb
00000130: 8843 193e f35f 47bd 6075 7bbb 557d c7bd
00000140: 168f a5bd 15e5 d6bd b483 cbbc 62e0 f83d
00000150: 7de0 29bc 9dab 11be 4ce4 ffbb ec65 35bc
00000160: ba1b 4d3c dfdf eb3d cadc 353d 7e55 d6bd
00000170: c0e1 4bbd 5eca 85bd ab5f 323d d19f 6e3d
00000180: eb5c 413c c4bf 47bd 6c84 5f3d 2360 183d
00000190: a1f2 a0bc a5fa ba3d 8841 ffbc fc0f 343b
000001a0: 39a5 e9bc 2117 97bd faeb 37bd 29a0 7bbd
000001b0: a487 583c 56a0 aebd c5bf a03c 6377 d73b
000001c0: 0417 793d e232 a3bd 5003 a63d 9f2b 0c3e
000001d0: 90c7 64bd 309c 9abd d5ec b6bd 32ec 45bd
000001e0: 2098 7c3d 4f80 a43d fb85 83bd 9932 053d
000001f0: f561 15be e3dc 1cbd 28a5 f0bd 7bf6 8b3d
00000200: c030 0ebe c8e1 273e 2e48 af3a c895 a83e
00000210: 8187 043e 5f0d 43be cb9e b1be 3761 be3e
00000220: b1a3 a83d 457b ad3d 39d4 6abd 0609 143f
00000230: 6a0a 0e3e c1f1 3dbe 5877 82bd 917c 2ebe
00000240: b819 0b3d abb3 ecbd 3bd3 12bd d744 30be
00000250: 87e1 ab3d c485 d53d d44c 703e db4b 60be
00000260: 7972 5f3e 6953 103f a25b be3c 54c5 49bd
00000270: e8eb f6bd da3d 24bd fbd1 043d df72 ce3d
00000280: 366e d0be 602a afbd 1bdf 50be 97b5 633d
00000290: dcd0 0dbe 3f1c 17bd 4190 883d 7b9d f4bc
000002a0: d833 993d 9369 e5be 9962 21be 9d99 77be
000002b0: bf5f b83d 6c57 b7bd 4515 efbd 1300 5a3e
000002c0: 8ec9 abbd 5829 263e 00e1 59be f3b2 853e
000002d0: ba81 b1bd b220 ad3e 0e4f f8bd 9a8e 45be
000002e0: 234e 08be ccfd 56be 1147 acbd 5d8e a13b
000002f0: c381 4bbc 0d52 6bbd e814 e43e 088d 853e
00000300: f98a d4bd 471a 49be 4d6e b3bc fed2 eabd
00000310: 04e6 12bb f045 dabc c6dc 2bbd 909b be3c
00000320: c230 eb3d e3de 6bbe a176 c1be 93cb 0abe
00000330: 006a 923d b839 2bbe c77d 9e3d cb60 ffbd
00000340: 0cde 093e f581 01be 2076 19be d11f 873c
00000350: e527 8abd a986 8c3d e203 1bbe e636 eb3c
00000360: 34ab f3bd bafb 15bd 9297 183e a7fc 1bbd
00000370: 678c 95bc b91c 253e 4603 ba3d dab9 bf3d
00000380: 5444 be3c cf72 82be 1caf 943e b5a8 2f3d
00000390: a32e 06bc 37b9 293e 3e5c 5fbd 24e8 073e
000003a0: de32 243d 96d7 523d 0742 d43d f79f cf3d
000003b0: 7ab7 ccbd 816a 7fbe da27 0bbe a020 fa3d
000003c0: 6b14 1f3e ab57 133d 1323 d1be c49b 8dbe
000003d0: 3abb 133e eeb0 aa3d aab1 503e 35aa 843d
000003e0: 9026 9dbe a12a 073e f630 a93e 6e15 043e
000003f0: 085e 52bc 3ed2 afbe b47a a63d 6ded 0cbe
